…
tern` arguments to [LoraConfig](https://huggingface.co/docs/peft/main/en/package_reference/lora#peft.LoraConfig). These arguments should be dictionaries with the key being the layer name and the value being the rank/alpha value. The keys can be [regular expressions](https://docs.python.org/3/library/re.html) (regex). All LoRA layers that are not explicitly mentioned in `rank_pattern` and `alpha_pattern` will take the default `r` and `lora_alpha` values.\n\nTo give an example, let\u2019s assume that we have a model with the following structure:\n\nCopied\n\n```\n>>> print(model)\nOuter(\n  (foo): Linear(...)\n  (module): Middle(\n    (foo): Linear(...)\n    (foobar): Linear(...)\n    (module): Inner(\n      (foo): Linear(...)\n      (barfoo): Linear(...)\n    )\n  )\n)\n```\n\n- `rank_pattern={\"foo\": 42}` will match all 3 `foo` layers. Neither `foobar` nor `barfoo` are matched.\n- `rank_pattern={\"^foo\": 42}` will only match the `foo` layer of the model, but neither `module.foo` nor `module.module.foo`. This is because the `^` means \u201cstart of string\u201d when using regular expressions, and only `foo` starts with `\"foo\"`, the other layer names", "type": "Document"}}
{"lc": 1, "type": "constructor", "id": ["langchain", "schema", "document", "Document"], "kwargs": {"metadata": {"title": "LoRA", "description": "Hugging Face Official Documentation of LoRA", "url": "https://huggingface.co/docs/peft/main/en/developer_guides/lora", "source": "hf", "id": "73163a53-9cd0-4a82-afe2-17087f50e63a"}, "page_content": " model with the following structure:\n\nCopied\n\n```\n>>> print(model)\nOuter(\n  (foo): Linear(...)\n  (module): Middle(\n    (foo): Linear(...)\n    (foobar): Linear(...)\n    (module): Inner(\n      (foo): Linear(...)\n      (barfoo): Linear(...)\n    )\n  )\n)\n```\n\n- `rank_pattern={\"foo\": 42}` will match all 3 `foo` layers. Neither `foobar` nor `barfoo` are matched.\n- `rank_pattern={\"^foo\": 42}` will only match the `foo` layer of the model, but neither `module.foo` nor `module.module.foo`. This is because the `^` means \u201cstart of string\u201d when using regular expressions, and only `foo` starts with `\"foo\"`, the other 
…
r(10, 10)\n\n    def forward(self, input_ids):\n        x = self.embedding(input_ids)\n        x = self.linear(x)\n        x = self.lm_head(x)\n        return x\n\nlora_config = LoraConfig(\n    lora_alpha=16,\n    lora_dropout=0.1,\n    r=64,\n    bias=\"none\",\n    target_modules=[\"linear\"],\n)\n\nmodel = DummyModel()\nmodel = inject_adapter_in_model(lora_config, model)\n\ndummy_inputs = torch.LongTensor([[0, 1, 2, 3, 4, 5, 6, 7]])\ndummy_outputs = model(dummy_inputs)\n```\n\nPrint the model to see that the adapters have been correctly injected.\n\nCopied\n\n```\nDummyModel(\n  (embedding): Embedding(10, 10)\n  (linear): Linear(\n    in_features=10, out_features=10, bias=True\n    (lora_dropout): ModuleDict(\n      (default): Dropout(p=0.1, inplace=False)\n    )\n    (lora_A): ModuleDict(\n      (default): Linear(in_features=10, out_features=64, bias=False)\n    )\n    (lora_B): ModuleDict(\n      (default): Linear(in_features=64, out_features=10, bias=False)\n    )\n    (lora_embedding_A): ParameterDict()\n    (lora_embedding_B): ParameterDict()\n  )\n  (lm_head): Linear(in_features=10, out_features=10, bias=True)\n)\n```\n\n### Injection based on a state\\_dict\n\nSometimes, it is possible that there is a PEFT adapter checkpoint but the corresponding PEFT config is not known for whatever reason. To inject the PEFT layers for this checkpoint, you would usually have to reverse-engineer the corresponding PEFT config, most notably the `target_modules` argument, based
…
